app/src/main/assets/Keras_CY_smart_chair.tflite (tflite, 125108 bytes, 4 tensors)

dense_1/MatMul_bias f4 [1000]
0	0x3ca20426	0.019777369
1	0x3cd24b7a	0.025670756
2	0xbc87b43c	-0.016565435
3	0x3db21079	0.08694548
4	0x3d03da0f	0.03219038
5	0xbc427c04	-0.011870388
6	0xbc84d7e3	-0.016216224
7	0x3d058620	0.032598615
8	0x3d51c129	0.051209603
9	0xbbd7a0de	-0.006580456
10	0x00000000	0.0
11	0xbbc26484	-0.0059323926
12	0x3dab6a93	0.08369937
13	0x3d543f94	0.051818445
14	0xbd7cf8d2	-0.06176073
15	0x3c9fb22e	0.019494142
16	0xbda8d3f7	-0.08243554
17	0xbd628add	-0.05530821
18	0xbb71cf60	-0.0036897287
19	0xbd30a1d3	-0.043123078
20	0xbc9436c2	-0.018092517
21	0xbd1d37e1	-0.03838337
22	0x00000000	0.0
23	0x3e2d6b29	0.1693541
24	0xbbd0f480	-0.006376803
25	0x3cba8254	0.022767223
26	0xbb3cf8ef	-0.00288349
27	0xbbc4c1f0	-0.0060045645
28	0xbe07a737	-0.13247381
29	0xbe15fdf9	-0.14647664
30	0xbd6a93e2	-0.05726994
31	0xbca83bc1	-0.020536305
32	0xbc89bc44	-0.016813405
33	0x00000000	0.0
34	0x00000000	0.0
35	0xbd7b8908	-0.06140998
36	0x3b3e536a	0.0029041418
37	0xbdb1558e	-0.086588964
38	0xbbbc9e99	-0.005756211
39	0xbbca56ed	-0.006174913
40	0xbc3b6557	-0.0114377355
41	0x3db5bd50	0.08873999
42	0xbbac9c20	-0.005267635
43	0xbc53db3a	-0.012930686
44	0x00000000	0.0
45	0xbbb6246f	-0.0055585424
46	0xbdaf1085	-0.08548073
47	0xbddca792	-0.10774149
48	0xbc18d4cc	-0.0093280785
49	0xbdbc0d97	-0.091822796
50	0xbbb62223	-0.0055582686
51	0x3b929fe0	0.004474625
52	0xbd941062	-0.07229687
53	0xba626682	-0.00086364907
54	0x3d814ee9	0.06313879
55	0xbc76e09e	-0.015068201
56	0x3c5701b0	0.013122961
57	0xbc7378bb	-0.014860327
58	0xbba91c16	-0.005160819
59	0xbd271e0c	-0.04080014
60	0xbd0eb831	-0.034843627
61	0x3a4bdb5f	0.0007776524
62	0xbd564f17	-0.05232152
63	0x00000000	0.0
64	0x3b6296da	0.0034574778
65	0xbd951d10	-0.07280934
66	0x00000000	0.0
67	0xbda6a993	-0.081378125
68	0xbd52792f	-0.0513851
69	0xbbf5385a	-0.0074835243
70	0xbce62093	-0.028091704
71	0x3d62d60e	0.05537992
72	0xbddd79b8	-0.10814232
73	0x3d4e480d	0.05036168
74	0xbc96b680	-0.01839757
75	0x3cef28bf	0.029194234
76	0x3cadbd67	0.021208478
77	0xbc9cca02	-0.019139294
78	0xbc1af84f	-0.009458615
79	0x00000000	0.0
80	0xbc33219d	-0.010933307
81	0x3d9042f1	0.07044018
82	0xbcba961e	-0.02277666
83	0xbbb6202a	-0.0055580335
84	0xbbb61e54	-0.0055578146
85	0xbc08ad01	-0.008342029
86	0x3aafb367	0.0013404906
87	0x3d403194	0.04692228
88	0x3c75e632	0.015008496
89	0xbc49edef	-0.012324794
90	0xbc06a5bd	-0.008218226
91	0x3d83dd24	0.064386636
92	0xbd60f204	-0.054918304
93	0xbda0bac2	-0.07848121
94	0xbdbdad8b	-0.09261616
95	0x3bb43dae	0.005500517
96	0x3d338831	0.043831054
97	0xbc3c105c	-0.01147851
98	0xbbff8ff2	-0.007799142
99	0xbc2d5018	-0.010578178
100	0xbda502ee	-0.080571994
101	0x3d090248	0.03344944
102	0x00000000	0.0
103	0xbcdc3491	-0.026880534
104	0xbc06e56b	-0.008233408
105	0xbb2df8e1	-0.0026546048
106	0x3b0cf789	0.0021509847
107	0x00000000	0.0
108	0xbbc83052	-0.006109276
109	0x3d6b3c11	0.05743033
110	0xbcc3578e	-0.02384546
111	0xbc2139d3	-0.0098404465
112	0xbdd611a2	-0.10452582
113	0xbc60ae14	-0.013713378
114	0xbd8524b4	-0.06501141
115	0xbc6da3d8	-0.014504395
116	0xbc94e94a	-0.018177647
117	0xbc8483cf	-0.016176132
118	0xbcc2cd94	-0.023779668
119	0x00000000	0.0
120	0xbb0da996	-0.0021615974
121	0xbc44ceea	-0.012012223
122	0xbdd9650d	-0.10614977
123	0xbd877f25	-0.06616048
124	0xbcbc178e	-0.02296045
125	0x00000000	0.0
126	0x00000000	0.0
127	0x3d0609e8	0.03272429
128	0x3e29c7dc	0.16580147
129	0xbd131993	-0.03591306
130	0xbc8eb114	-0.017418422
131	0x3e5eb5df	0.21749066
132	0x3cba1ec8	0.022719756
133	0x3d46fbec	0.048580095
134	0xbc1dfcb7	-0.009642771
135	0x3d4eee86	0.050520442
136	0xbc284b47	-0.010271854
137	0x3cf358ce	0.029705431
138	0xbc213cb8	-0.009841137
139	0x00000000	0.0
140	0xbcbcfe4a	-0.023070473
141	0x00000000	0.0
142	0x3d5b2573	0.05350251
143	0x3d910874	0.070816904
144	0xbc9c248e	-0.0190604
145	0xbbbd6eae	-0.0057810163
146	0xbd449c0e	-0.048000388
147	0xbc768ad6	-0.0150477495
148	0xbdda5323	-0.10660388
149	0xbc11cb37	-0.008898548
150	0xbc5c1fe5	-0.013435339
151	0x3c86a319	0.016435193
152	0xbc2a6c14	-0.010401744
153	0xbc8256b2	-0.01591048
154	0x3c579bc9	0.013159701
155	0xbc67221f	-0.014107256
156	0xbd00c5a1	-0.031438474
157	0xbbd5451b	-0.006508482
158	0xbc03e17e	-0.008049367
159	0xbcbaf072	-0.022819731
160	0x3d2ead2c	0.04264562
161	0xbd216ff3	-0.039413404
162	0xb9101525	-0.00013740787
163	0x3d382bae	0.04496353
164	0xbca4d984	-0.02012325
165	0x3c22e170	0.009941444
166	0x3be0535e	0.0068458756
167	0x3deb4d5a	0.11489363
168	0xbdba1292	-0.09085573
169	0xbd33e4e9	-0.043919478
170	0x00000000	0.0
171	0xbba5d7ce	-0.0050611263
172	0xbc7486b5	-0.014924695
173	0xbc212b75	-0.009837021
174	0xbd869f9e	-0.06573413
175	0x3caba904	0.020954616
176	0xbbc7debb	-0.0060995496
177	0xbc125b58	-0.008932911
178	0x3cfe4598	0.031039044
179	0xbbe079f3	-0.006850475
180	0xbcaddd99	-0.02122383
181	0x00000000	0.0
182	0xbc482ab6	-0.012217214
183	0xbc615011	-0.0137519995
184	0x3d3889ae	0.045053177
185	0x3d8346fc	0.064100236
186	0x3d6be977	0.057595696
187	0x3b5e1324	0.003388592
188	0xbc4387ab	-0.011934201
189	0x3d5ba775	0.053626496
190	0xbc42e198	-0.011894606
191	0xbd112315	-0.035433847
192	0xbd357154	-0.04429753
193	0xbcc78ccf	-0.024359135
194	0x00000000	0.0
195	0x3d44bf5c	0.048034057
196	0x3b92b16a	0.004476716
197	0x3c9f6e5f	0.019461809
198	0x3dc6cbe3	0.09706857
199	0x3c6b3184	0.014355067
200	0x3d6b462c	0.057439968
201	0xbdba1d6b	-0.09087642
202	0x00000000	0.0
203	0xbdff059f	-0.12452244
204	0xbc3c1516	-0.011479637
205	0x3d0083ac	0.031375572
206	0x3cf3b555	0.029749552
207	0xbd8474f8	-0.064676225
208	0xbbe795e3	-0.0070674284
209	0xbd41669f	-0.047217008
210	0x00000000	0.0
211	0x00000000	0.0
212	0xbc666b28	-0.014063634
213	0x3df04eb4	0.117337614
214	0x00000000	0.0
215	0xbd99ed9c	-0.075160235
216	0xbc28ddac	-0.010306757
217	0x00000000	0.0
218	0xbd3c579d	-0.045981992
219	0x00000000	0.0
220	0xbd3ef998	-0.04662475
221	0xbc235e0b	-0.009971152
222	0xbc3f1b41	-0.011664213
223	0xbd8fa393	-0.07013621
224	0xbd4a87c2	-0.049445875
225	0xbc15a513	-0.009133595
226	0xbbab5064	-0.005228089
227	0xbc6ccd99	-0.014453315
228	0xbc831ffb	-0.01600646
229	0x3b8cd90b	0.0042983345
230	0xbd638280	-0.055544376
231	0x3d446a69	0.047953043
232	0xbe07f671	-0.13277604
233	0xbce0d686	-0.027446043
234	0x00000000	0.0
235	0xbb48374d	-0.003055054
236	0x00000000	0.0
237	0x00000000	0.0
238	0xbcb56f9a	-0.022147942
239	0x3c5ed90a	0.013601551
240	0x3d1a6386	0.03769257
241	0x3b7d2de5	0.0038632092
242	0xbc598f29	-0.013278761
243	0xbddf8bb2	-0.10915317
244	0x3d42ffd8	0.047607273
245	0x3c62f852	0.0138531495
246	0xbd767204	-0.060167328
247	0xbdb9dafd	-0.09074972
248	0xbba8e934	-0.005154753
249	0x00000000	0.0
250	0x00000000	0.0
251	0x00000000	0.0
252	0xbd8a9387	-0.0676642
253	0xbd571137	-0.05250665
254	0xbd9555e8	-0.07291776
255	0xbd0e1eb8	-0.034697264

dense_1/kernel/transpose f4 [1000, 22]
0	0x3e4c013f	0.1992235
1	0x3e7237c3	0.23654084
2	0xbe0fdc0a	-0.14048782
3	0xbdc8e4cf	-0.09809267
4	0x3e409ea3	0.18810515
5	0x3f09b9d0	0.5379915
6	0xbf6b4e1f	-0.9191608
7	0xbce60a97	-0.028081222
8	0xbea6e1ea	-0.32594234
9	0x3dc6b6b3	0.09702816
10	0xbf03e2e5	-0.5151809
11	0x3e0329d2	0.12808922
12	0xbecdf058	-0.4022243
13	0x3dfe8cfc	0.124292344
14	0x3bc90955	0.0061351457
15	0xbdb3be65	-0.08776549
16	0xbe9b6178	-0.303478
17	0x3eba30b4	0.36365283
18	0x3c62a697	0.013833663
19	0x3e41c702	0.18923572
20	0x3ea0bb97	0.3139312
21	0x3ecec71d	0.40386286
22	0x3ede5a8c	0.43428457
23	0xbdc5f773	-0.09666338
24	0xbe380bc1	-0.17973234
25	0xbeee9582	-0.4659844
26	0x3eb104ac	0.34573877
27	0xbbfc0f37	-0.0076922434
28	0xbd637731	-0.05553359
29	0xbeddfb55	-0.43355814
30	0xbe899d67	-0.268779
31	0xbf3ae21f	-0.73001283
32	0xbe90c299	-0.28273466
33	0xbdab2cce	-0.08358155
34	0x3d0b023f	0.03393769
35	0x3d0cc37d	0.03436612
36	0x3eb39420	0.35073948
37	0xbe88f4a3	-0.26749143
38	0x3e2de4a3	0.16981749
39	0xbc1813ab	-0.009282033
40	0x3e339d60	0.17540503
41	0x3e6aad34	0.22917634
42	0x3ee17e19	0.44041517
43	0x3e80da03	0.2516633
44	0xbda93791	-0.082625516
45	0xbd15ef9a	-0.036605455
46	0x3b4664d2	0.0030272496
47	0xbc93108e	-0.01795223
48	0x3d9c86aa	0.07642873
49	0xbc22bdd3	-0.009932953
50	0x3cacd412	0.021097217
51	0x3d068025	0.032837052
52	0xbdda1c37	-0.10649913
53	0x3cb71932	0.022350881
54	0x3d15d363	0.036578547
55	0xbc5932ee	-0.0132567715
56	0xbdc5fc00	-0.09667206
57	0xbd9d2ed5	-0.07674948
58	0x3cc19bb2	0.023633812
59	0x3c8c2e3b	0.017111888
60	0x3a86d114	0.0010285699
61	0xbcfa3f44	-0.030547746
62	0x3d2bc2fc	0.041934
63	0x3d71dc1c	0.059047803
64	0x3c9746f6	0.018466454
65	0x3b13d1c8	0.002255546
66	0x3dc47059	0.09591741
67	0xbe1d8d08	-0.1538583
68	0x3dec1ff9	0.11529536
69	0xbdf7beb0	-0.12096918
70	0xbee9d998	-0.45673823
71	0x3e9fdacb	0.31221613
72	0x3f0fbc21	0.56146437
73	0xbf196391	-0.5991755
74	0x3ea23d5c	0.31687438
75	0xbe352e7f	-0.17693518
76	0x3e5240b1	0.2053249
77	0x3da6034c	0.081060976
78	0x3da8ba4a	0.08238657
79	0x3da7f5f9	0.082012124
80	0x3d5767b7	0.052589145
81	0xbd900d83	-0.07033827
82	0xbe74b34c	-0.23896521
83	0xbea27a3a	-0.31733876
84	0xbd5f1269	-0.054460917
85	0xbd7b0030	-0.061279476
86	0xbd38de16	-0.045133673
87	0xbccaf342	-0.024774197
88	0x3bf34908	0.0074244775
89	0xbf0a32df	-0.53983873
90	0x3e9896d6	0.2980258
91	0xbc190852	-0.009340363
92	0x3e79b575	0.24385627
93	0xbe4da40f	-0.20082115
94	0x3df5f47a	0.12009521
95	0xbf56201e	-0.83642757
96	0x3f143946	0.5789989
97	0x3e1de641	0.15419866
98	0xbe8f212b	-0.27954993
99	0xbe0dfb5e	-0.1386542
100	0x3dce1f54	0.10064569
101	0x3d976867	0.0739296
102	0xbdd84a5e	-0.105610594
103	0xbed0f006	-0.40808123
104	0x3d8b4a85	0.06801323
105	0xbe6d7941	-0.23190786
106	0xbd9b900e	-0.075958356
107	0x3cc9187b	0.024547806
108	0x3b8c3c54	0.0042796526
109	0x3e9bd9e4	0.30439675
110	0x3c50811a	0.012726093
111	0xbd8cd4ee	-0.068765506
112	0xbdbb7fed	-0.09155259
113	0xbd8c3d32	-0.068476096
114	0xbbf51841	-0.007479698
115	0x3bf95054	0.007608453
116	0xbdbfe645	-0.09370092
117	0xbd512c4e	-0.051067643
118	0xbd48d3d1	-0.04903013
119	0x3c1b1af9	0.00946688
120	0xbdb8dcfd	-0.09026525
121	0x3afea0fd	0.001942664
122	0x3d2a2324	0.04153742
123	0xbc5adf93	-0.013358968
124	0xbc10e927	-0.00884465
125	0xbcb9a4e9	-0.022661643
126	0x3c7d857b	0.015473719
127	0x3d0e3ea9	0.034727726
128	0xbd1706ce	-0.036871724
129	0x3d6bb5b5	0.057546336
130	0x3d207a2d	0.039179016
131	0xbc9a047f	-0.018800972
132	0xbdcb88e2	-0.09938218
133	0xbdaa1f2f	-0.08306729
134	0xbd8b61c3	-0.06805756
135	0x3cec7ccf	0.028868107
136	0x3cecccb1	0.028906198
137	0xbd45ce10	-0.04829222
138	0xbb770670	-0.0037693046
139	0xbd95bc40	-0.073112965
140	0xbda6e901	-0.08149911
141	0xbb7fd856	-0.0039038858
142	0xbd8fa508	-0.07013899
143	0x3cd5d61d	0.026103074
144	0xbd8f61b1	-0.07001055
145	0x3ba65580	0.0050761104
146	0x3cbccb57	0.023046179
147	0xbc096a20	-0.008387119
148	0xbdd059b7	-0.10173362
149	0x38cdc4f4	9.811847e-05
150	0xbda5ca44	-0.0809522
151	0xbd903de4	-0.07043055
152	0x3c80a100	0.01570177
153	0x3d0a39bc	0.033746466
154	0x3dc3f8f8	0.095689714
155	0xbe09c9a0	-0.1345582
156	0xbbd28f63	-0.0064257844
157	0xbe0e3a14	-0.13889343
158	0x3dcefacf	0.10106432
159	0x3e564b9d	0.20927282
160	0xbf0da78f	-0.553338
161	0xbf4f6379	-0.8101116
162	0x3e809eda	0.25121194
163	0x3bb58c86	0.0055404333
164	0xbf099a9a	-0.5375153
165	0xbe2a1e1a	-0.16613045
166	0x3e2f61c7	0.17127143
167	0xbda87b8a	-0.08226688
168	0xbdad8131	-0.08471907
169	0xbe7dc3ec	-0.2478177
170	0xbb249059	-0.0025110452
171	0xbd054b5a	-0.032542564
172	0xbd30df70	-0.043181837
173	0x3c9fb1a4	0.019493885
174	0x3d801e4f	0.06255781
175	0x3e3a3b80	0.1818676
176	0x3ecd5730	0.4010558
177	0xbeb95ace	-0.3620209
178	0xbdceacb1	-0.10091532
179	0x3dc8556e	0.097819194
180	0x3f9fbf56	1.2480266
181	0xbf12d8dd	-0.5736216
182	0xbf69c607	-0.9131779
183	0x3e91cb9e	0.2847566
184	0xbe3cf1b5	-0.18451579
185	0x3ea87655	0.3290278
186	0x3e833b93	0.2563139
187	0x3c67dd8f	0.014151945
188	0x3b857c14	0.004073629
189	0x3dec3e48	0.11535317
190	0x3d2daf57	0.042403545
191	0xbe586dab	-0.21135585
192	0x3d26637c	0.04062222
193	0x3db9ec87	0.09078317
194	0xbe3888ce	-0.18020937
195	0x3e128cc9	0.14311518
196	0x3e385631	0.1800163
197	0x3cb8138f	0.022470264
198	0xbe2bd141	-0.16779043
199	0x3ec553ca	0.38540488
200	0xbea45bc1	-0.32101253
201	0xbe2ce8e7	-0.1688572
202	0xbf30a9c2	-0.6900903
203	0x3f05453a	0.52058756
204	0xbf62b5e4	-0.88558793
205	0xbc53dc1f	-0.012930899
206	0xbea8a8ab	-0.32941183
207	0x3d3594d0	0.04433137
208	0xbe0d2667	-0.1378418
209	0x3ed8265d	0.4221677
210	0xbea2a1b0	-0.31763983
211	0x3e1ea150	0.15491223
212	0x3c886821	0.016651215
213	0x3eff08f7	0.49811527
214	0xbe983a74	-0.29732096
215	0x3f167678	0.5877452
216	0x3ca31ae1	0.019910278
217	0x3e154f18	0.14580953
218	0x3dec6bf7	0.1154403
219	0x3e365252	0.1780484
220	0x3d6745cd	0.05646305
221	0x3d3a379d	0.045463193
222	0x3dae801e	0.0852053
223	0xbd150b15	-0.03638752
224	0x3c1b35b3	0.009473252
225	0xbd39f106	-0.045395873
226	0xbcfa5c7d	-0.03056168
227	0xbd0dfc4d	-0.03466444
228	0x3cb991da	0.022652555
229	0xbe2123c3	-0.15736298
230	0xbda8212e	-0.082094535
231	0xbc6a0492	-0.014283316
232	0xbc899263	-0.016793435
233	0xbd07b27f	-0.03312921
234	0xbd12c00d	-0.035827685
235	0x3d5659a8	0.052331597
236	0xbe160d53	-0.1465352
237	0x3cb258df	0.021770893
238	0x3d2719ba	0.04079602
239	0xbb3b9ac2	-0.0028626178
240	0xbdbe92f4	-0.09305373
241	0xbdba8008	-0.09106451
242	0xbd3e022d	-0.046388794
243	0xbd2934a1	-0.041309956
244	0x3d909b46	0.07060866
245	0x3cc73767	0.02431841
246	0xbc759178	-0.014988296
247	0xbc903e7a	-0.017607916
248	0xbbefd5e8	-0.007319201
249	0x3c917240	0.017754674
250	0xbcd907b1	-0.026492925
251	0x3b69e207	0.0035687701
252	0xbd97e0ea	-0.07415946
253	0x3d4cc648	0.049993783
254	0x3d3e584e	0.046470933
255	0x3ae6eb51	0.0017617737

dense_2/MatMul_bias f4 [8]
0	0xbfbe7d3a	-1.4881966
1	0x3f070dae	0.5275525
2	0xbcafd20b	-0.021462461
3	0xbd8c4e54	-0.068508774
4	0xbe92c6cc	-0.28667295
5	0xbe4cc146	-0.19995603
6	0xbe079e55	-0.13243993
7	0xbde74cd8	-0.11293954

dense_2/kernel/transpose f4 [8, 1000]
0	0xbf1d9b9f	-0.61565584
1	0xbe62ea12	-0.22159603
2	0x3e08c483	0.13356213
3	0xbf161c9a	-0.5863739
4	0xbed72e90	-0.42027712
5	0x3cf4066d	0.02978822
6	0xbd0e8a9b	-0.034800153
7	0xbeb1cda7	-0.34727213
8	0xbf17f3ac	-0.5935619
9	0xbe82f6cf	-0.25578925
10	0x3d6e3170	0.058152616
11	0xb993af1d	-0.00028168494
12	0xbf61e4f4	-0.8823998
13	0xbf82b184	-1.0210423
14	0xbeafcdd7	-0.3433673
15	0xbf267d69	-0.6503511
16	0xbe801667	-0.25017092
17	0xbef74336	-0.48293465
18	0xbebb4cbe	-0.36581987
19	0xbe8c2be1	-0.27377227
20	0xbd577275	-0.05259939
21	0xbe9925f4	-0.29911768
22	0xbd406b60	-0.0469774
23	0xbe07736c	-0.13227624
24	0xbd4b35fa	-0.049612023
25	0xbf104d3d	-0.56367856
26	0xbda04486	-0.0782557
27	0x3cfba674	0.03071902
28	0xbf07ddae	-0.5307263
29	0xbe155ce1	-0.14586212
30	0xbf328666	-0.69736326
31	0xbcf13d9b	-0.029448321
32	0xbcf250ca	-0.029579539
33	0xbcb72bd7	-0.022359772
34	0xbd443a47	-0.04790714
35	0xbe851064	-0.25989068
36	0xbe9207a7	-0.28521463
37	0xbeded02b	-0.43518195
38	0x3dc898e0	0.097947836
39	0xbc2c52eb	-0.010517816
40	0x3d7e7f96	0.062133394
41	0xbf8168e8	-1.011014
42	0xbd01ab67	-0.031657603
43	0x3cc66c73	0.024221634
44	0xbd9b5abf	-0.07585668
45	0x3db6a85a	0.08918829
46	0xbffb5b03	-1.963715
47	0xbe867415	-0.2626044
48	0xbc20c00d	-0.0098114135
49	0xbf28f7e2	-0.6600324
50	0x3d2bdcad	0.0419585
51	0xbefbf1ae	-0.49207824
52	0xbf2cbed4	-0.6747868
53	0xbeea33ed	-0.4574274
54	0xbec2575c	-0.37957275
55	0x3c4ebd4a	0.012618372
56	0xbf13bc19	-0.5770889
57	0xbfa2f85e	-1.2732046
58	0xbb7401b3	-0.0037232458
59	0xbebdf4fa	-0.37100965
60	0xbe806ef7	-0.2508466
61	0xbf1969a8	-0.59926844
62	0xbf798ac3	-0.9747736
63	0xbdb84b96	-0.08998792
64	0xbf9cef56	-1.226054
65	0xbf01593a	-0.50526774
66	0xbd2e3ed1	-0.042540375
67	0xbe952dcd	-0.29136506
68	0xbec07170	-0.37586546
69	0xbbbaae01	-0.0056970124
70	0xbea079a6	-0.3134281
71	0xbed49071	-0.4151645
72	0xbe7c5070	-0.2464006
73	0xbea0fca7	-0.31442758
74	0x3da0c580	0.0785017
75	0xbeff4978	-0.4986074
76	0xbea7511e	-0.32679075
77	0x3d9f4f7f	0.077788346
78	0xbbe1aba3	-0.006886916
79	0x3db2e40a	0.08734901
80	0x3bae7bbf	0.0053248103
81	0xc01b79e0	-2.4293137
82	0xbf00eb70	-0.5035925
83	0xbd63fe72	-0.05566258
84	0x3cfa6f64	0.030570693
85	0x3d167e59	0.03674159
86	0xbe8c3926	-0.2738735
87	0xbf88d11c	-1.0688815
88	0xbea07272	-0.31337315
89	0xbcbc745a	-0.0230047
90	0x3d732f35	0.059371192
91	0xbe266ced	-0.1625249
92	0xbed6158d	-0.41813317
93	0xbecda6db	-0.40166363
94	0xbf3ce0af	-0.7378034
95	0xbf219718	-0.63121176
96	0xbe983069	-0.29724434
97	0xbd432c5d	-0.04764973
98	0xbf1d97f6	-0.6156
99	0xbf156725	-0.5836051
100	0xbeb04ad6	-0.34432095
101	0xbeac20b5	-0.33618703
102	0xbbe77b5b	-0.0070642657
103	0xbe37c537	-0.17946325
104	0x3d20e84e	0.039284043
105	0xbed224a5	-0.41043583
106	0xbe8ec31b	-0.2788323
107	0xbcb976a7	-0.022639586
108	0x3dc48215	0.09595124
109	0xbe5cd940	-0.2156725
110	0xbf055189	-0.5207754
111	0x3d58c7a0	0.052924752
112	0xbf3735f8	-0.71566725
113	0x3ccb991f	0.024853287
114	0xbfd2ca3a	-1.6467965
115	0xbd8d9c30	-0.06914556
116	0xbd062482	-0.03274966
117	0xbf0690f1	-0.52564913
118	0xbdd8b999	-0.10582275
119	0x3d8721fa	0.065982774
120	0xbe58937e	-0.21150014
121	0xbd6e62b6	-0.058199607
122	0xbeb643fe	-0.3559875
123	0xbedfe25c	-0.43727386
124	0x3cbcf903	0.023067957
125	0xbc2c5d0d	-0.010520232
126	0xbde20330	-0.11035764
127	0xbeaf0e1e	-0.34190458
128	0xbe81d41f	-0.25357148
129	0xbeeb9606	-0.46012896
130	0x3d2e939d	0.042621244
131	0x3c70a6ba	0.014688188
132	0xbfeed9f1	-1.866026
133	0xbec59e4a	-0.38597327
134	0x3c9dda44	0.019269116
135	0xbf2fb675	-0.6863778
136	0xbcdbd98f	-0.026837138
137	0xbf323839	-0.6961704
138	0x3bbf8fd6	0.005846004
139	0xbc6f0dea	-0.01459072
140	0xbed9ba2b	-0.42524847
141	0xbc166658	-0.009179674
142	0xbfc31544	-1.5240865
143	0xbf8e91c7	-1.1138238
144	0xbf1af450	-0.6052904
145	0xbc393311	-0.011303679
146	0xbf1d02d4	-0.6133244
147	0xbd105c1c	-0.035244092
148	0xbec2e9eb	-0.3806909
149	0xbcf5cddc	-0.030005388
150	0x3d91a04d	0.07110653
151	0xbef7fa5f	-0.48433205
152	0xbdfbea66	-0.12300567
153	0xbd55af00	-0.052168846
154	0xbecb0870	-0.39654875
155	0xbeb27201	-0.34852603
156	0xc0011cd1	-2.0173838
157	0xbe1bb9cb	-0.15207593
158	0x3d2a73f7	0.0416145
159	0x3d3baeb6	0.045820914
160	0xbf86b903	-1.0525211
161	0xbef989c7	-0.48737928
162	0xbf1ead2c	-0.6198299
163	0xbe4bb754	-0.19894153
164	0xbf6488cf	-0.89271253
165	0xbed9daed	-0.4254984
166	0xbe9531e4	-0.29139626
167	0xbca00863	-0.01953525
168	0xbeadc5fd	-0.33940116
169	0xbe4bbcee	-0.1989629
170	0x39bafdbf	0.0003566574
171	0xbe95724f	-0.29188773
172	0xbcab4f37	-0.020911796
173	0xbd2b1fdc	-0.04177843
174	0xbefb99ab	-0.49140677
175	0xbf6c2d40	-0.92256546
176	0xbd6de746	-0.058081888
177	0x3c461ae8	0.012091376
178	0xbefb6103	-0.49097452
179	0x3d0a0727	0.033698227
180	0xbf6d76df	-0.9275951
181	0x3d59f997	0.053216543
182	0xbd2e6b38	-0.04258272
183	0xbbd0623c	-0.0063593667
184	0xbf155910	-0.58339024
185	0xbf1ce5a0	-0.6128788
186	0xbe8452eb	-0.2584451
187	0xbef40850	-0.47662592
188	0x3dd1abc0	0.10237837
189	0xbf05a492	-0.5220424
190	0x3deb0974	0.114764124
191	0xbeaa5c3d	-0.33273497
192	0xbe9e0608	-0.30863976
193	0xbf1cf0d4	-0.61304975
194	0x3c43b319	0.011944556
195	0xbeaef44b	-0.34170756
196	0xbf0c54fe	-0.5481719
197	0xbe8d974b	-0.2765449
198	0xbf154ca9	-0.583201
199	0xbed85c8e	-0.42258114
200	0xbeb01c97	-0.34396812
201	0xbeaa3aea	-0.33248073
202	0xbb8dc9bb	-0.0043270267
203	0xbdc6a865	-0.097000875
204	0xbc10c6d8	-0.008836471
205	0xc0073872	-2.1128201
206	0xbe3f49df	-0.18680523
207	0xbeabbd57	-0.33542892
208	0xbcda8674	-0.02667544
209	0xbdf5d47f	-0.12003421
210	0xbd0ab8ca	-0.033867635
211	0xbd440253	-0.04785378
212	0xbe53c0a1	-0.20678951
213	0xbf8b6831	-1.0891172
214	0xbd649c9b	-0.055813413
215	0xbe4f5cc8	-0.20250237
216	0x3d544c6d	0.051830698
217	0xbced5a3d	-0.028973693
218	0xbe83d54e	-0.25748676
219	0xbd0e0833	-0.034675788
220	0xbeb61a00	-0.3556671
221	0xbcc45db5	-0.023970464
222	0xbd54d1b2	-0.051957794
223	0xbf255c3e	-0.64593875
224	0xbe5a2c18	-0.21305883
225	0x3c798c96	0.015231272
226	0x3c760451	0.015015678
227	0xbed99faf	-0.4250464
228	0xbdb08d62	-0.08620717
229	0xbf666346	-0.8999523
230	0xbebfd888	-0.37469888
231	0xbf134026	-0.5751976
232	0xbe88b4e8	-0.2670052
233	0xbe15a3ec	-0.14613312
234	0x39785f25	0.00023686567
235	0xbe7955a4	-0.24349076
236	0xbc9e8b1e	-0.019353446
237	0xbc911a75	-0.017712811
238	0xbf61330a	-0.87968504
239	0xbfa74436	-1.3067691
240	0xbf61c8cc	-0.88197017
241	0xbea48e59	-0.32139853
242	0x3cb2486e	0.021763053
243	0xbddb08b4	-0.10695019
244	0xbe8d8b46	-0.2764532
245	0xbec56b8e	-0.3855862
246	0xbf14ca5f	-0.58121294
247	0xbdc81bbd	-0.09770916
248	0xbc8d98f8	-0.017284855
249	0x3d3586aa	0.04431788
250	0x3e0249f5	0.12723525
251	0x3d75bd73	0.059995126
252	0xbedd1484	-0.43179715
253	0xbe7a65fd	-0.24452968
254	0xbe75b98d	-0.23996563
255	0xbeb912a6	-0.3614704
